…
e>","tags":["\u673a\u5668\u5b66\u4e60","\u6df1\u5ea6\u5b66\u4e60"]},{"location":"blog/keras-plot-model/#\u4f7f\u7528modelsummary\u67e5\u770b\u7f51\u7edc\u7ed3\u6784","title":"\u4f7f\u7528\u200b<code>model.summary()</code>\u200b\u67e5\u770b\u200b\u7f51\u7edc\u7ed3\u6784","text":"Python<pre><code>model.summary()\n</code></pre> Text Only<pre><code>Model: \"sequential\"\n_________________________________________________________________\n Layer (type)                Output Shape              Param #   \n=================================================================\n conv2d (Conv2D)             (None, 48, 48, 64)        640       \n\n conv2d_1 (Conv2D)           (None, 48, 48, 64)        36928     \n\n max_pooling2d (MaxPooling2D  (None, 23, 23, 64)       0         \n )                                                               \n\n conv2d_2 (Conv2D)           (None, 23, 23, 128)       73856     \n\n conv2d_3 (Conv2D)           (None, 23, 23, 128)       147584    \n\n max_pooling2d_1 (MaxPooling  (None, 10, 10, 128)      0         \n 2D)                                                             \n\n conv2d_4 (Conv2D)           (None, 10, 10, 256)       295168    \n\n conv2d_5 (Conv2D)           (None, 10, 10, 256)       590080    \n\n max_pooling2d_2 (MaxPooling  (None, 4, 4, 256)        0         \n 2D)                                                             \n\n conv2d_6 (Conv2D)           (None, 4, 4, 512)         1180160   \n\n conv2d_7 (Conv2D)           (None, 4, 4, 512)         2359808   \n\n max_pooling2d_3 (MaxPooling  (None, 1, 1, 512)        0         \n 2D)                                                             \n\n flatten (Flatten)           (None, 512)               0         \n\n dropout (Dropout)           (None, 512)               0         \n\n dense (Dense)               (None, 7)                 3591      \n\n=================================================================\nTotal params: 4,687,815\nTrainable params: 4,687,815\nNon-trainable params: 0\n_________________________________________________________________\n</code></pre> <p>\u200b\u6211\u4eec\u200b\u5df2\u7ecf\u200b\u5f97\u5230\u200b\u4e86\u200b\u8868\u683c\u200b\u6837\u5f0f\u200b\u7684\u200b\u6a21\u578b\u200b\u7ed3\u6784\u200b\uff
…
\u548c\u53c2\u6570\u4e2a\u6570","title":"<code>torchsummary.summary(model, input_size)</code>\u200b\u67e5\u770b\u200b\u5c42\u200b\u7c7b\u578b\u200b\u3001\u200b\u8f93\u51fa\u200b\u7ef4\u5ea6\u200b\u548c\u200b\u53c2\u6570\u200b\u4e2a\u6570","text":"Python<pre><code>from torchsummary import summary\nsummary(test2, input_size=(1, 9, 30))\n</code></pre> Text Only<pre><code>----------------------------------------------------------------\n        Layer (type)               Output Shape         Param #\n================================================================\n       BatchNorm2d-1            [-1, 1, 36, 10]               2\n       BatchNorm2d-2            [-1, 1, 36, 10]               2\n       BatchNorm2d-3             [-1, 1, 9, 10]               2\n       BatchNorm2d-4             [-1, 1, 9, 10]               2\n       BatchNorm2d-5             [-1, 1, 9, 10]               2\n       BatchNorm2d-6             [-1, 1, 9, 10]               2\n       BatchNorm2d-7             [-1, 1, 9, 10]               2\n         MaxPool2d-8            [-1, 1, 117, 1]               0\n       BatchNorm2d-9            [-1, 1, 117, 1]               2\n        AvgPool2d-10            [-1, 1, 117, 1]               0\n      BatchNorm2d-11            [-1, 1, 117, 1]               2\n        MaxPool2d-12            [-1, 1, 117, 1]               0\n      BatchNorm2d-13            [-1, 1, 117, 1]               2\n================================================================\nTotal params: 20\nTrainable params: 20\nNon-trainable params: 0\n----------------------------------------------------------------\nInput size (MB): 0.00\nForward/backward pass size (MB): 0.01\nParams size (MB): 0.00\nEstimated Total Size (MB): 0.02\n----------------------------------------------------------------\n</code></pre>","
…
lu(F.max_pool2d(self.conv2_drop(self.conv2(x)), 2))\nx = x.view(-1, 320)\nx = F.relu(self.fc1(x))\nx = F.dropout(x, training=self.training)\nx = self.fc2(x)\nreturn F.log_softmax(x, dim=1)\ndevice = torch.device(\"cuda\" if torch.cuda.is_available() else \"cpu\")  # PyTorch v0.4.0\nmodel = Net().to(device)\nsummary(model, (1, 28, 28))\n</code></pre> Text Only<pre><code>----------------------------------------------------------------\n        Layer (type)               Output Shape         Param #\n================================================================\n            Conv2d-1           [-1, 10, 24, 24]             260\n            Conv2d-2             [-1, 20, 8, 8]           5,020\n         Dropout2d-3             [-1, 20, 8, 8]               0\n            Linear-4                   [-1, 50]          16,050\n            Linear-5                   [-1, 10]             510\n================================================================\nTotal params: 21,840\nTrainable params: 21,840\nNon-trainable params: 0\n----------------------------------------------------------------\nInput size (MB): 0.00\nForward/backward pass size (MB): 0.06\nParams size (MB): 0.08\nEstimated Total Size (MB): 0.15\n----------------------------------------------------------------\n</code><
…
u7edc\u7ed3\u6784","title":"\u4f7f\u7528\u200b<code>torchsummary</code>\u200b\u5305\u200b\u67e5\u770b\u200b\u7f51\u7edc\u7ed3\u6784","text":"Python<pre><code>from torchsummary import summary\ntest = AlphaNet(\ncombination, combination_rev, index_list, fc1_num=702, fc2_num=30, dropout_rate=0.5\n)\nsummary(test, input_size=(1, 9, 30))\n</code></pre> Text Only<pre><code>----------------------------------------------------------------\n        Layer (type)               Output Shape         Param #\n================================================================\n       BatchNorm2d-1             [-1, 1, 36, 3]               2\n       BatchNorm2d-2             [-1, 1, 36, 3]               2\n       BatchNorm2d-3              [-1, 1, 9, 3]               2\n       BatchNorm2d-4              [-1, 1, 9, 3]               2\n       BatchNorm2d-5              [-1, 1, 9, 3]               2\n       BatchNorm2d-6              [-1, 1, 9, 3]               2\n       BatchNorm2d-7              [-1, 1, 9, 3]               2\n         MaxPool2d-8            [-1, 1, 117, 1]               0\n       BatchNorm2d-9            [-1, 1, 117, 1]               2\n        AvgPool2d-10            [-1, 1, 117, 1]               0\n      BatchNorm2d-11            [-1, 1, 117, 1]               2\n        MaxPool2d-12            [-1, 1, 117, 1]               0\n      BatchNorm2d-13            [-1, 1, 117, 1]               2\n        Inception-14                  [-1, 702]               0\n           Linear-15                   [-1, 30]          21,090\n             ReLU-16                   [-1, 30]               0\n          Dropout-17                   [-1, 30]               0\n           Linear-18                    [-1, 1]              31\n================================================================\nTotal params: 21,141\nTrainable params: 21,141\nNon-trainable params: 0\n----------------------------------------------------------------\nInput size (MB): 0.00\nForward/backward pass size (MB): 0.01\nParams size (MB): 0.08\nEstimated Total Size (MB): 0.10\n----------------------------------------------------------------\n</code><
…
-v3/#\u4f7f\u7528torchsummary\u5305\u67e5\u770b\u7f51\u7edc\u7ed3\u6784","title":"\u4f7f\u7528\u200b<code>torchsummary</code>\u200b\u5305\u200b\u67e5\u770b\u200b\u7f51\u7edc\u7ed3\u6784","text":"Python<pre><code>test = AlphaNet(combination, combination_rev, index_list_1, index_list_2, fc_num=60)\nsummary(test, input_size=(1, 9, 30))\n</code></pre> Text Only<pre><code>----------------------------------------------------------------\n        Layer (type)               Output Shape         Param #\n================================================================\n       BatchNorm2d-1             [-1, 1, 36, 3]               2\n       BatchNorm2d-2             [-1, 1, 36, 3]               2\n       BatchNorm2d-3              [-1, 1, 9, 3]               2\n       BatchNorm2d-4              [-1, 1, 9, 3]               2\n       BatchNorm2d-5              [-1, 1, 9, 3]               2\n       BatchNorm2d-6              [-1, 1, 9, 3]               2\n       BatchNorm2d-7              [-1, 1, 9, 3]               2\n               GRU-8  [[-1, 3, 30], [-1, 2, 30]]               0\n               GRU-9                   [-1, 30]               0\n        Inception-10                   [-1, 30]               0\n      BatchNorm2d-11            [-1, 1, 36, 10]               2\n      BatchNorm2d-12            [-1, 1, 36, 10]               2\n      BatchNorm2d-13             [-1, 1, 9, 10]               2\n      BatchNorm2d-14             [-1, 1, 9, 10]               2\n      BatchNorm2d-15             [-1, 1, 9, 10]               2\n      BatchNorm2d-16             [-1, 1, 9, 10]               2\n      BatchNorm2d-17             [-1, 1, 9, 10]               2\n              GRU-18  [[-1, 10, 30], [-1, 2, 30]]               0\n              GRU-19                   [-1, 30]               0\n        Inception-20                   [-1, 30]               0\n           Linear-21                    [-1, 1]              61\n================================================================\nTotal params: 89\nTrainable params: 89\nNon-trainable params: 0\n----------------------------------------------------------------\nInput size (MB): 0.00\nForward/backward pass size (MB): 0.17\nParams size (MB): 0.00\nEstimated Total Size (MB): 0.17\n----------------------------------------------------------------\n</code></pre> <p
…
